data.pth (torch, 8151 bytes, 6 tensors)

l1.weight f4 [8, 116]
-0.2245437 0.56344414 0.10726783 0.8951756 -0.040496964 -0.06753728 0.45406663 0.38916758
0.66746014 0.2563483 0.6419377 0.21175317 0.20011078 0.27874207 0.53933173 0.33433384
0.7268911 -0.07592127 0.33900973 1.1786842 0.59423435 0.39766896 0.15104063 -0.011489187
0.23928721 0.97698635 0.5238485 0.2853128 0.43432966 0.2902183 -0.16226202 0.18501441
0.32391635 -0.0039418587 1.1644018 0.82887805 -0.37030846 0.2874472 0.6283645 0.6753108
0.41072124 0.3810393 0.7307375 0.8842221 -0.04223818 0.3465081 -0.22142865 0.17077707
0.36383504 0.39921182 0.72730786 0.5691479 0.145145 -0.1813042 1.1579776 2.4115234e-05
0.029024918 0.15002096 0.37686706 0.19355232 -0.044705752 0.54875004 0.2610793 -0.79324377
-0.8979443 0.23450726 0.21609078 0.4131935 0.143548 0.6123487 -0.40587914 0.16642651
-0.073366754 0.27304557 -0.7728222 0.23868032 -0.15302043 0.37476644 -0.972869 1.0064293
-0.24349597 0.3640355 -0.25551012 0.3004638 0.42114437 0.050965395 0.07789345 0.13788266
0.36759558 0.20698905 0.67045766 0.0601683 -0.45989162 0.08499228 0.5375947 0.21120033
0.20836945 0.27716693 0.20889585 -0.017150449 -0.8257075 -0.2098522 0.02807131 0.367555
-0.42277235 0.57529145 0.4641853 0.6216632 0.5976954 -0.022243137 0.19140786 -0.4349045
-0.14938083 0.28801522 0.28234753 0.044543978 0.24629548 -0.18402238 -0.23860933 -0.71918327
-0.35684732 -0.022239909 -0.18658091 0.77173215 -0.24080493 1.0206808 0.0796722 0.04865876
0.1608794 0.29198894 0.074487284 -0.041951276 0.90358967 -0.027371474 0.0498457 0.37057185
-0.04457213 0.57910204 0.26118907 0.166899 -0.26922688 -0.3877087 0.17215359 0.18929942
0.8743092 0.58837974 1.0087138 0.85467774 0.15408252 0.18382455 -0.2922977 0.4267198
-0.4179216 -0.22465047 0.26545152 -0.11188798 -0.12781589 0.77945626 0.87916994 -0.03345181
0.5345353 1.2641408 -0.23229693 0.16990164 1.2360137 1.352718 0.8721702 -0.025540086
-0.2096376 0.18897009 -0.6628827 -0.64718294 0.78211457 1.0991204 -0.22033298 -0.16721988
0.17934169 0.58518785 0.5752134 1.0461367 -0.4404047 -0.15983273 -0.11626062 0.4796274
0.34129086 0.38975105 -0.3956099 -0.13141146 0.24642536 0.56454235 0.45375156 1.1266547
0.22987203 0.01841949 -0.24268055 -0.18687677 -0.3736167 0.066132985 0.6268325 -0.19176833
-0.2560897 -0.6851726 -0.21396142 1.2548641 -0.096658364 -0.16609497 -0.5422431 -0.0650212
-0.6123565 0.11127207 0.5795248 0.17127818 0.59230393 -0.1769493 0.032893002 -0.0367849
-0.4048485 -0.21870743 0.27853376 0.76243645 0.40650466 -0.52046686 -0.24924518 0.24773294
0.023265788 0.43068692 1.5297366 0.5885373 0.18618417 0.8130129 -0.21127234 0.3202255
-0.6063678 -0.28471228 0.9146694 -0.9851878 0.008382867 0.2568466 -0.10872309 0.33885145
-0.49685866 0.4385574 -0.2749651 0.1736137 -0.0009295332 0.016642021 -0.2408225 0.4725278
-0.17210539 0.25864792 -0.044871133 -0.39812642 -0.35689098 -0.27265474 0.022059875 0.22835325
00000000: c9ee 65be e03d 103f 3caf db3d 3a2a 653f
00000010: 25e0 25bd fc50 8abd 6c7b e83e f940 c73e
00000020: abde 2a3f 1640 833e 0756 243f d3d5 583e
00000030: d7e9 4c3e 48b7 8e3e a511 0a3f ce2d ab3e
00000040: 8915 3a3f 9c7c 9bbd af92 ad3e 20df 963f
00000050: be1f 183f 449b cb3e 65aa 1a3e 253d 3cbc
00000060: b507 753e c71b 7a3f ef1a 063f 8514 923e
00000070: 7560 de3e 7e97 943e 0428 26be 6b74 3d3e
00000080: 5dd8 a53e b52a 81bb 1e0b 953f 5a31 543f
00000090: 1299 bdbe 482c 933e 7fdc 203f 2be1 2c3f
000000a0: 0e4a d23e 9517 c33e 9d11 3b3f 615c 623f
000000b0: f101 2dbd 8269 b13e 31be 62be 2fe0 2e3e
000000c0: 9648 ba3e 7e65 cc3e d930 3a3f adb3 113f
000000d0: e4a0 143e cfa7 39be 9c38 943f 124b ca37
000000e0: aac5 ed3c 189f 193e b8f4 c03e 9432 463e
000000f0: 611d 37bd e27a 0c3f 30ac 853e 0612 4bbf
00000100: addf 65bf ac22 703e e746 5d3e 198e d33e
00000110: 3ffe 123e e2c2 1c3f 64cf cfbe b66b 2a3e
00000120: 4f41 96bd a1cc 8b3e add7 45bf 9d68 743e
00000130: 63b1 1cbe 63e1 bf3e f10d 79bf add2 803f
00000140: 0257 79be dc62 ba3e 39d2 82be 64d6 993e
00000150: 3ca0 d73e 17c1 503d 9a86 9f3d 1d31 0d3e
00000160: 7d35 bc3e f0f4 533e 1da3 2b3f 0973 763d
00000170: ea76 ebbe 6f10 ae3d ce9f 093f e644 583e
00000180: cd5e 553e d3e8 8d3e cbe8 553e 197f 8cbc
00000190: 9161 53bf 7fe3 56be cef5 e53c 2b30 bc3e
000001a0: 9e75 d8be 4d46 133f b2a9 ed3e 5225 1f3f
000001b0: 9102 193f 3d37 b6bc 6c00 443e cdab debe
000001c0: 4af7 18be bb76 933e db8f 903e bf73 363d
000001d0: e234 7c3e 5d70 3cbe 0156 74be 651c 38bf
000001e0: b1b4 b6be 7830 b6bc 110f 3fbe 3d90 453f
000001f0: 9195 76be aba5 823f 2e2b a33d 684e 473d
00000200: 92bd 243e 937f 953e ca8c 983d 1ad5 2bbd
00000210: a751 673f 243a e0bc 012b 4c3d 98bb bd3e
00000220: 4491 36bd 0840 143f 93ba 853e 92e7 2a3e
00000230: 1bd8 89be c181 c6be 0849 303e b5d7 413e
00000240: bad2 5f3f 0ea0 163f 891d 813f 29cc 5a3f
00000250: cfc7 1d3e 813c 3c3e 0ba8 95be 057b da3e
00000260: d2f9 d5be c60a 66be 43e9 873e 8625 e5bd
00000270: 2be2 02be 728a 473f 4811 613f c404 09bd
00000280: 4ed7 083f 5ecf a13f 3fdf 6dbe b2fa 2d3e
00000290: b235 9e3f dd25 ad3f 8c46 5f3f 7139 d1bc
000002a0: 3dab 56be 6081 413e aeb2 29bf c8ad 25bf
000002b0: a938 483f faaf 8c3f f89e 61be b03b 2bbe
000002c0: 59a5 373e dfce 153f 2f41 133f cfe7 853f
000002d0: ba7c e1be 31ab 23be 0c1a eebd b991 f53e
000002e0: adbd ae3e 738d c73e 618d cabe ba90 06be
000002f0: ee56 7c3e d985 103f 2052 e83e 3936 903f
00000300: 9363 6b3e 78e4 963c 4081 78be a05c 3fbe
00000310: b04a bfbe bb70 873d 1878 203f eb5e 44be
00000320: 301e 83be 7967 2fbf b418 5bbe 639f a03f
00000330: d2f4 c5bd cd14 2abe 72d0 0abf d629 85bd
00000340: 65c3 1cbf 9ce2 e33d bd5b 143f 8c63 2f3e
00000350: 3ba1 173f 3332 35be d0ba 063d c3ab 16bd
00000360: 4d48 cfbe d7f4 5fbe fa9b 8e3e 092f 433f
00000370: 6121 d03e 513d 05bf 213a 7fbe b4ad 7d3e
00000380: e597 be3c ff82 dc3e 69ce c33f 61aa 163f
00000390: 10a7 3e3e 9d21 503f c757 58be 99f4 a33e
000003a0: ec3a 1bbf cfc5 91be c627 6a3f 4535 7cbf
000003b0: 4b58 093c 6681 833e 36aa debd f07d ad3e
000003c0: 4264 febe 988a e03e 3ac8 8cbe cac7 313e
000003d0: ebab 73ba d954 883c 2c9a 76be 2aef f13e
000003e0: 653c 30be 806d 843e cbca 37bd 3ad7 cbbe
000003f0: 6aba b6be 6799 8bbe e9b6 b43c 6fd5 693e

l1.bias f4 [8]
1.0827199 1.0650382 0.60524994 0.9371302 0.5426198 0.6943248 0.3701676 0.4307267
00000000: 9196 8a3f 2c53 883f a9f1 1a3f c4e7 6f3f
00000010: 22e9 0a3f 45bf 313f 9c86 bd3e 3688 dc3e

l2.weight f4 [8, 8]
0.3620548 0.49008867 0.82237554 0.14031576 0.09070126 -0.7973892 0.5102986 -0.38889226
-0.89510566 1.1025274 -0.28068215 0.940618 0.93158346 1.2877498 -0.7339734 0.2861317
0.0671524 -0.3767453 1.3045716 1.1277931 1.0878905 -0.12337664 -0.57048345 0.9119028
-0.06310979 1.3785642 1.9464517 -1.1183938 0.3695046 0.42689624 0.0093728965 -0.14155637
-0.030276306 0.06776812 0.68410593 1.3215665 -0.10253466 1.3395346 -1.3680971 -0.19667135
1.6146772 1.0646209 -0.48365247 0.8736284 -0.85212284 0.4100124 0.66165173 -0.8647641
1.3368726 0.417503 0.17381462 -0.1649072 -0.508268 1.0390749 -0.9858192 -0.8575212
-0.3156137 0.62484044 -0.5483832 -0.872742 1.4360632 1.0048531 1.5074891 1.7808067
00000000: 3f5f b93e e7ec fa3e 3487 523f efae 0f3e
00000010: 95c1 b93d b321 4cbf eea2 023f e31c c7be
00000020: a525 65bf 9e1f 8d3f 92b5 8fbe 57cc 703f
00000030: 417c 6e3f fcd4 a43f aee5 3bbf db7f 923e
00000040: 3387 893d c3e4 c0be 34fc a63f 865b 903f
00000050: ff3f 8b3f e4ac fcbd 340b 12bf 7672 693f
00000060: b53f 81bd cb74 b03f 5425 f93f 8727 8fbf
00000070: b52f bd3e 2592 da3e c790 193c 27f4 10be
00000080: 0406 f8bc 03ca 8a3d 9121 2f3f 1729 a93f
00000090: b1fd d1bd df75 ab3f ce1d afbf 3764 49be
000000a0: bead ce3f 7f45 883f 4ca1 f7be 1ca6 5f3f
000000b0: b924 5abf 25ed d13e 0262 293f 2e61 5dbf
000000c0: a41e ab3f f4c2 d53e 76fc 313e 6fdd 28be
000000d0: da1d 02bf 6800 853f a65e 7cbf 8286 5bbf
000000e0: 1e98 a1be 8bf5 1f3f d762 0cbf 056c 5fbf
000000f0: ebd0 b73f 079f 803f 67f5 c03f 79f1 e33f

l2.bias f4 [8]
0.2965676 0.16598052 0.22774625 0.5279468 0.22763379 0.76849693 0.6401587 0.24406122
00000000: b5d7 973e ccf6 293e 5036 693e 8627 073f
00000010: d518 693e 37bc 443f 71e1 233f 2feb 793e

l3.weight f4 [16, 8]
0.49346945 -0.17769857 -0.022387419 0.537288 -1.1927412 -0.71860343 -1.0785434 0.23673543
-0.3714137 -2.8521032 -0.57792336 0.56891865 0.34461132 0.21641503 0.75462925 -1.0617799
-0.07995395 0.2140732 0.21753013 -1.7062814 0.46064532 -0.1662992 -0.06247587 -1.5364102
-1.9621139 0.39485878 -2.7581944 0.47678962 0.0060279197 -0.0731786 0.056021325 -0.15631782
-0.21246997 0.18560238 0.04702191 -1.6358922 0.6740548 -0.08955744 -0.35168868 -1.4523602
0.9188956 -1.8305124 0.5402942 -0.3767908 0.2799208 -0.24523325 -0.33685863 -1.6744093
-1.3343762 0.2748416 0.17211588 0.48013157 0.17183408 -1.1924993 0.32869864 -0.1366298
0.17889337 -1.0474353 0.69175637 0.41254693 -0.6123816 -1.5386565 -0.9532549 0.35179
0.72428715 -0.7968099 -1.8368667 -0.14090745 -2.0855222 1.037635 0.71933067 -2.6442385
-1.6297721 0.75922203 -1.0094484 0.12936255 -1.7437879 -1.059247 -1.5962166 0.8210554
-1.5702653 -0.5601788 -0.60194427 -0.5741392 -1.5061371 0.5459077 -0.44952536 0.70395714
0.67506075 -2.1440525 -2.741827 0.30887526 -1.9023609 0.6567191 -0.11394102 0.18356572
0.36225447 0.29019246 -0.9459699 0.4706766 0.30768952 0.032719314 0.034170907 -1.8921788
-2.2145424 -0.08680541 -1.2153559 -1.269292 0.70099545 0.19817555 0.7022323 -0.57694465
-3.1020405 0.6664363 0.4411856 -1.7421457 0.45739368 -1.1424813 -1.4014721 0.4067363
-2.2659535 0.49076095 0.09826489 0.09699951 0.033830967 -2.251735 -1.4807292 0.45865068
00000000: 07a8 fc3e 9df6 35be d265 b7bc b58b 093f
00000010: beab 98bf 65f6 37bf b60d 8abf c66a 723e
00000020: f029 bebe dc88 36c0 c9f2 13bf a7a4 113f
00000030: e570 b03e e79b 5d3e 622f 413f 67e8 87bf
00000040: e6be a3bd 0136 5b3e 38c0 5e3e 6e67 dabf
00000050: b4d9 eb3e 564a 2abe b3e6 7fbd 17a9 c4bf
00000060: 8c26 fbbf ee2a ca3e 4286 30c0 c51d f43e
00000070: db85 c53b a9de 95bd 9e76 653d c711 20be
00000080: ba91 59be 8d0e 3e3e 0c9a 403d ea64 d1bf
00000090: db8e 2c3f e469 b7bd 8a10 b4be f0e6 b9bf
000000a0: be3c 6b3f 3b4e eabf b850 0a3f b9ea c0be
000000b0: c751 8f3e 6d1e 7bbe bc78 acbe 0b53 d6bf
000000c0: d7cc aabf 0ab8 8c3e 253f 303e ced3 f53e
000000d0: 46f5 2f3e d1a3 98bf 304b a83e afe8 0bbe
000000e0: d32f 373e 5c12 86bf f216 313f 5a39 d33e
000000f0: 0ac5 1cbf b2f2 c4bf 8308 74bf d21d b43e
00000100: e26a 393f bcfb 4bbf 731e ebbf 0b4a 10be
00000110: 3279 05c0 39d1 843f 0e26 383f 343b 29c0
00000120: 5f9c d0bf 605c 423f 9b35 81bf 9e77 043e
00000130: 7134 dfbf 6895 87bf d350 ccbf b030 523f
00000140: 74fe c8bf e167 0fbf 0519 1abf c9fa 12bf
00000150: 1ac9 c0bf 9bc0 0b3f 3028 e6be 8936 343f
00000160: c8d0 2c3f 2838 09c0 187a 2fc0 e624 9e3e
00000170: 9080 f3bf be1e 283f e959 e9bd a7f8 3b3e
00000180: 6b79 b93e 1b94 943e 152b 72bf 86fc f03e
00000190: 7b89 9d3e b004 063d cbf6 0b3d ea32 f2bf
000001a0: 10bb 0dc0 09c7 b1bd c890 9bbf 2978 a2bf
000001b0: 7074 333f 88ee 4a3e 7fc5 333f a5b2 13bf
000001c0: d587 46c0 929b 2a3f 14e3 e13e a1fe debf
000001d0: 812f ea3e d43c 92bf 7063 b3bf be3f d03e
000001e0: 6205 11c0 0545 fb3e 1a3f c93d aea7 c63d
000001f0: 5792 0a3d 6d1c 10c0 8988 bdbf 43d4 ea3e

l3.bias f4 [16]
-0.17607582 -0.304237 -0.20718771 -0.3888047 0.19234008 0.44016185 -0.37466538 0.16090496
-0.08837868 0.15625145 0.2780176 0.2277478 -0.18676944 0.080837995 0.2915672 -0.80200696
00000000: 384d 34be f4c4 9bbe 0429 54be 6911 c7be
00000010: ccf4 443e e55c e13e 24d4 bfbe 45c4 243e
00000020: e2ff b4bd 6100 203e 5358 8e3e b836 693e
00000030: 7d40 3fbe 648e a53d 4c48 953e 5450 4dbf
