data .pth (torch, 8151 bytes, 6 tensors)

l1.weight f4 [8, 116]
000000 56 50 60 be 17 51 26 3d 42 53 0a 3f 62 8b 77 3f
       -0.21905646 0.040604677 0.5403329 0.96697056
000010 d3 4b bf be 42 30 6a be 06 bf 90 3e 30 85 8f be
       -0.37362537 -0.22869971 0.2827074 -0.28031301
000020 55 70 cd 3e ff eb cb be 06 e7 c2 bd e1 da bc 3e
       0.40124765 -0.39828488 -0.095167205 0.3688574
000030 24 64 15 3f f2 9c 07 3f 21 eb 89 bd 1c 5d eb 3e
       0.5835593 0.52973855 -0.067343004 0.45969474
000040 6a df a6 3e fa ae b6 be 39 cc 0c 3f d2 18 f8 3e
       0.32592326 -0.35680372 0.5499912 0.48456436
000050 ce f6 e5 bd 36 c1 87 be c8 7d fa 3e 2f c0 12 3f
       -0.11228715 -0.26514596 0.48924088 0.573245
000060 69 41 e2 3e 6b a8 8f 3f 72 62 65 3f 56 f5 8e 3e
       0.4419053 1.1223272 0.8960334 0.2792155
000070 e4 c7 01 be f1 1b df 3e 23 33 a0 be 53 b0 3b bf
       -0.12673908 0.43576005 -0.31289014 -0.73315924
000080 c6 12 28 be ed 07 1c 3f 5b 70 76 3f 55 a8 03 3f
       -0.16413411 0.60949594 0.9626519 0.5142873
000090 04 02 17 3e d7 87 5b 3f 90 da 44 3e 15 63 95 3e
       0.14746863 0.8575415 0.19224 0.29177156
0000a0 9b 35 07 3f fc 38 81 be 87 ff 90 3e 09 37 23 3f
       0.5281617 -0.25238788 0.28319952 0.6375585
0000b0 ee 3a ab 3d 06 47 e3 be 1c ff 33 be da 38 79 bc
       0.08360849 -0.44390124 -0.17577785 -0.015211308
0000c0 fa 95 05 bf c0 89 03 bf e9 18 3a 3f 77 8f 17 3f
       -0.5218197 -0.51382065 0.7269426 0.59203285
0000d0 82 af ae 3e 83 21 78 3e 79 67 90 3f 40 80 8f 3d
       0.34118277 0.24231534 1.1281577 0.070068836
0000e0 77 39 22 be 08 e0 6f 3e 44 af 55 3e c8 9e 96 3e
       -0.15842234 0.23425305 0.2086764 0.29418015
0000f0 50 f0 53 3e e3 78 a4 3e 04 a6 0b bf 52 ae 70 bf
       0.2069714 0.3212348 -0.54550195 -0.9401599
000100 d0 ac 24 3f 9c e5 c4 3c fb 4e 24 3f 66 95 5c 3e
       0.6432619 0.024035268 0.64183015 0.21541366
000110 c6 af 8a 3e a3 c3 ec 3e 1a 60 67 3e ff 25 6e be
       0.2708723 0.4624301 0.22595254 -0.23256682
000120 35 d9 c7 bc 10 e6 8c 3e 9d c5 da 3e a7 c5 57 be
       -0.024395565 0.27519274 0.42728892 -0.21071492
000130 1b f3 5c 3e 45 7b 87 be 88 95 44 3f 1c 6f 5d 3f
       0.21577112 -0.26461235 0.76790667 0.86497664
000140 ac f1 e3 3e 1c 89 82 3e ba 19 c7 3d 49 98 c1 3e
       0.44520319 0.2549523 0.09721704 0.37811497
000150 8b 15 aa 3e 7e 68 04 3d d4 71 9f be 42 35 a8 3f
       0.3321956 0.032326214 -0.3114153 1.3141253
000160 76 fe d2 3e 39 27 a2 3e 5d d2 f0 3e 2f 39 50 be
       0.41209763 0.3167055 0.47035494 -0.20334314
000170 3a 4f 5a 3f 9d 13 dc 3e 75 87 a5 3e 6d 38 81 be
       0.8527714 0.42983714 0.32329908 -0.25238362
000180 04 cb bf 3e 17 40 ac 3e 92 12 35 3d 3f 5f 01 3f
       0.37459576 0.33642647 0.044207163 0.5053596
000190 bd 91 50 bf 36 bc de be cb 03 61 bd 88 98 ab be
       -0.8147238 -0.4350297 -0.054935258 -0.3351481
0001a0 aa b1 34 3f 98 4c 0a 3f 7c cb d0 3e d0 39 7d bd
       0.70583594 0.5402312 0.40780246 -0.061822712
0001b0 06 4a 53 3e 17 e3 ce 3e 65 51 0f 3d 90 3e 0b bf
       0.20633706 0.4040763 0.034989733 -0.5439234
0001c0 c9 b1 a7 3d 7a 1e 36 bf ab 90 13 bc dc 3b 9a bd
       0.08188207 -0.71140254 -0.0090066595 -0.075309485
0001d0 af 2f 95 3e c5 1c 16 3f fd a9 7f 3e b1 b9 71 3f
       0.29137942 0.5863765 0.24967189 0.9442397
0001e0 7d 88 e4 be 35 f3 4b 3d d8 9e c1 be 75 5c 47 be
       -0.44635382 0.049792487 -0.378165 -0.19468863
0001f0 00 e0 ba b7 84 19 17 bf c7 13 fd 3e be 2b e1 3c
       -2.2277236e-05 -0.5902331 0.4942915 0.027486678
000200 5e 14 e3 3d 06 33 c4 3d 9f cd 14 3f 5e bf 91 3c
       0.11087869 0.095800444 0.5812625 0.017791446
000210 30 aa 0c bf a1 55 6c bd 5b 02 f0 3e 50 91 87 3f
       -0.54947186 -0.05769885 0.46876797 1.0591221
000220 b2 c0 0a 3f a2 84 ff 3e 44 f3 71 3e ad 59 43 3d
       0.5420028 0.49905878 0.23627955 0.047692943
000230 81 7e 2d ba 0c b4 8f 3f 6c 45 fc bd 25 fe 89 be
       -0.0006618277 1.1226821 -0.12317929 -0.2695171
000240 d8 08 3e be 6a 2d 65 3e f6 7e 93 be fb 7e 35 3f
       -0.18558061 0.22380605 -0.288078 0.7089688
000250 46 d6 7b 3e df 4e a2 3d 21 ac 87 3f fb d3 43 3f
       0.24593458 0.079252 1.0599405 0.7649533
000260 9c 84 54 be ef b3 b4 be ee d3 1c 3f a7 8c 02 3f
       -0.20753711 -0.35293528 0.6126088 0.5099587
000270 20 51 e0 3e ad da 81 be d9 8d 0c bf 4b d0 91 3e
       0.43811893 -0.2536215 -0.5490394 0.28479227
000280 3f 73 3f 3e 8b 56 e9 be c5 11 13 3f 77 c6 fc bc
       0.18696307 -0.4557384 0.5744899 -0.030856354
000290 25 92 eb be b1 2f 03 bf db 26 92 bd c6 10 23 3f
       -0.46009937 -0.51244646 -0.07136317 0.6369747
0002a0 75 0b 52 be 03 1a 80 3e f6 ee 87 bf 99 5e 4e be
       -0.20512183 0.25019845 -1.06198 -0.20153274
0002b0 07 e8 17 bd 0d a6 e4 3d df b6 ed 3e 63 11 98 3d
       -0.037086513 0.11164484 0.46428582 0.07425191
0002c0 85 e9 e0 3b fb 48 cb be c9 e4 21 3f af 9a 96 bf
       0.006863775 -0.39704117 0.63239723 -1.1765956
0002d0 d4 9e 15 be 9c 83 77 3e 52 12 e1 3e 10 3e c5 3e
       -0.1461137 0.24171299 0.4395929 0.38523912
0002e0 1a 4a 27 3d 4f fe da 3e 2e d6 b0 be 9d 48 12 3e
       0.040842153 0.42772147 -0.34538406 0.14285512
0002f0 3e dd a3 3d dc 96 c6 bd 58 c3 4a bf a7 5f 62 bf
       0.08001183 -0.09696743 -0.7920432 -0.88427204
000300 5f 70 94 3e 3b 7a b1 3e 18 c9 11 bd 7a ab 4a 3f
       0.28991982 0.34663567 -0.03559217 0.791679
000310 f4 53 51 3d ca 0b ea 3e 9e 08 1b bf df 58 3d bd
       0.051105455 0.4571212 -0.60560024 -0.046227332
000320 c5 66 d8 3e 87 a1 80 3d ee 2e 7d 3d d9 3c f7 3e
       0.42265907 0.06280809 0.061812334 0.4828861
000330 bc 2b d2 3e 78 dd af 3d bb 1d 2c 3f eb 78 3a be
       0.41048992 0.08587164 0.67232865 -0.18210189
000340 3d 04 03 bf 54 23 cc 3d 4d b8 ed be 58 37 ac bd
       -0.5117834 0.09967676 -0.46429673 -0.084089935
000350 60 b6 44 bd e7 04 44 bd 77 13 56 be 5f a1 e0 3d
       -0.04802549 -0.047856238 -0.20905863 0.10968279
000360 16 17 7b 3f 19 74 a6 3e fa 6e d0 3e d1 16 99 bd
       0.980821 0.3251045 0.40709668 -0.07475055
000370 54 e7 e7 3c ee 92 3a 3e c7 d2 f2 3e 55 06 4a 3f
       0.028308548 0.18220112 0.47426435 0.7891591
000380 6d f1 23 3f 92 19 93 3b d5 2c 52 bf b6 d8 06 bf
       0.6404026 0.004489132 -0.8209966 -0.52674425
000390 15 a2 ce bd a6 57 2e 3f 94 fd da 3c 88 d4 a0 3e
       -0.100895084 0.6810249 0.026732244 0.31412148
0003a0 b7 6a 38 3e 62 0a 67 3e ff 42 4d 3e f2 13 ba bc
       0.18009458 0.22562554 0.20045088 -0.022714589
0003b0 43 9b 84 3f 60 da 43 3e 1f 1b fa 3e 6e 5a 26 3f
       1.0359882 0.19126272 0.48848817 0.64981735
0003c0 9b 27 8e be 9e 4b 89 3e 6b 30 b3 3e 09 c5 46 3d
       -0.27764592 0.26815504 0.34997877 0.04852775
0003d0 7c c4 f4 be fc 3a d8 be ad ac 90 3e 95 9d 9a 3e
       -0.47806156 -0.42232502 0.2825674 0.3019835
0003e0 dc 85 de 3e 96 36 17 3e 4f df 8d bc 5f 57 46 3e
       0.43461502 0.14766917 -0.017318396 0.19369267
0003f0 83 56 82 3e 3f 5f 37 be 38 1e a0 be 8d c1 2c 3f
       0.25456628 -0.17907427 -0.31273055 0.67482835

l1.bias f4 [8]
000000 86 bb 4f 3f b0 9e 0b 3f 46 cc 43 3f 74 98 3c 3f
       0.81145513 0.5453901 0.7648357 0.73670125
000010 7d 44 6f 3f c6 18 11 3f 0f 5d 1f 3f 34 4d 4c 3f
       0.9346388 0.56678426 0.6225137 0.798053

l2.weight f4 [8, 8]
000000 fc f3 68 3f 9d 98 92 3f 66 32 7c 3f 05 19 04 be
       0.9099729 1.1452824 0.985144 -0.12900169
000010 d8 77 86 3e 40 3f 40 bf b9 6c 27 3f 74 3c 30 bf
       0.2626331 -0.7509651 0.6540027 -0.68842244
000020 3b 27 9a 3f fd bd a8 3e 22 bc 30 be 6f 73 c7 3e
       1.2043222 0.3295745 -0.17259267 0.38955256
000030 3d 27 6b bf a2 a9 2b bf 55 bb dc bd 9a 25 8f 3f
       -0.9185675 -0.67055714 -0.10777918 1.118335
000040 fd 9a af 3e 57 2b ef 3f 5f aa 81 bf 88 20 85 bf
       0.34297934 1.8685101 -1.0130118 -1.0400553
000050 f8 23 9a 3e 39 0c c9 3f d9 a6 4c 3f e0 cf a7 3f
       0.30105567 1.5706855 0.7994209 1.3110313
000060 ee cb 00 3f dd 57 96 bf 61 7b 24 3f 34 86 9c 3f
       0.5031117 -1.1745564 0.6425076 1.2228456
000070 c9 55 41 3f 38 5b c8 3e c5 b7 da be 42 11 ac be
       0.7552152 0.39132094 -0.4271833 -0.33606917
000080 66 f7 da be a0 b0 36 bf 5b aa 9d 3f cd f1 be 3f
       -0.42766875 -0.7136326 1.2317613 1.4917542
000090 93 f8 ab 3f 24 0f 0d bf dd 09 bd 3f 45 7f b9 3f
       1.3435234 -0.5510123 1.4768635 1.4491965
0000a0 f4 1a 88 3f 3e a7 08 bf b1 3a 3a bc af 51 c3 3f
       1.0633225 -0.5338019 -0.011366532 1.5259303
0000b0 af 2b 92 3d c3 25 8a be 6d f5 9f bf a6 0d 3a 3f
       0.07137238 -0.26981935 -1.2496773 0.72677076
0000c0 39 9d 2c 3f 53 28 7a bf 66 06 39 bf d6 47 8d bd
       0.674274 -0.9771778 -0.7227539 -0.06898467
0000d0 f6 ff 1f bd d6 a6 b6 3f da 6e 69 3f 8c c8 df 3e
       -0.039062463 1.4269664 0.9118477 0.43707693
0000e0 b6 f6 fe bd 6c 0c e4 bd 10 30 2f 3e 11 a6 6c be
       -0.124494 -0.11135182 0.17108178 -0.23110224
0000f0 d8 f5 1c 3e 1c 63 4c 3d ea 19 5f be b1 01 9c be
       0.15328157 0.049899206 -0.21787229 -0.3047004

l2.bias f4 [8]
000000 93 d3 83 3d 75 92 8d 3e 46 f2 1b 3f 38 9c ca 3e
       0.06436839 0.276508 0.60916555 0.3957231
000010 f2 cd a9 3e cb f0 da 3e ac 71 b6 bd 96 cd b8 be
       0.33164936 0.42761835 -0.089084 -0.3609435

l3.weight f4 [16, 8]
000000 b3 af 42 bf 9c 9b 19 bf 95 67 3c 3e 03 9f 3f 3f
       -0.76049346 -0.60003066 0.18398888 0.7485201
000010 bb 19 a7 bf 22 f3 9a 3d ff 86 18 3f b9 80 88 3b
       -1.3054727 0.07565905 0.5958099 0.0041657356
000020 a5 2b 3f 3f 3d 83 1e 3f 38 8e 05 bf 5f 45 a9 bf
       0.7467597 0.61919004 -0.52170134 -1.3224295
000030 15 ce cf be 27 7e ae 3d 66 33 e4 bf 12 88 8b 3e
       -0.40586916 0.085201554 -1.7828186 0.2725225
000040 93 24 8f 3e 8b fd ac bf 53 5a dd bf 51 d9 a1 3d
       0.2795759 -1.3514875 -1.729319 0.07902778
000050 d8 46 df 3e 39 60 cb bf 80 b0 a9 bf 90 89 15 3e
       0.43608737 -1.588874 -1.3256989 0.14603257
000060 1f 5c 3a bf c3 92 04 bf 0f 7b 85 3f 49 00 d7 bf
       -0.72796816 -0.5178644 1.042818 -1.6796962
000070 86 79 0d c0 dc 4b b3 bf 46 bb f7 3e 9a 6b 66 3e
       -2.2105422 -1.4007525 0.48385066 0.22501984
000080 ae a8 5f be 1b ff 67 bf 98 b9 da bf 9a 7d 53 3e
       -0.2184169 -0.90623635 -1.7087889 0.20653382
000090 4a 20 26 3f b5 74 df bf 96 14 b1 bf 8b fa a8 be
       0.6489302 -1.7457491 -1.3834407 -0.3300365
0000a0 a5 e0 40 3e d6 6b 9d bc 23 b4 fb bf 9f 72 1a 3d
       0.18835695 -0.01921646 -1.9664348 0.037706967
0000b0 2c 0b 81 bd 4f cc bb 3e d4 a1 f4 bf ad 5e d4 bd
       -0.06300959 0.36679313 -1.9111886 -0.103696205
0000c0 c6 77 cc bf 59 c3 7c 3f 73 b3 17 3f 3a 84 75 bf
       -1.5974052 0.98735577 0.5925819 -0.95904887
0000d0 24 dc 94 bf 42 b2 46 3f 2b cf 04 be 3d 15 03 be
       -1.1629682 0.7761575 -0.12969653 -0.1280107
0000e0 6e 4e 57 be 43 1d cc 3d 42 4b aa 3e 7f 0a 3b bf
       -0.21026012 0.09966519 0.33260542 -0.7306289
0000f0 8e 5a 52 be 5a 00 83 bf c0 2c da 3e 27 31 95 bd
       -0.20542356 -1.0234482 0.42612267 -0.07284766
000100 76 69 76 3f 1c 80 67 be e4 1e 3e 3f 1a c9 27 c0
       0.9625467 -0.22607464 0.74265885 -2.6216493
000110 15 e1 97 bf 28 0a f2 bf 0d 9b aa bf 96 99 d0 bd
       -1.1865565 -1.890935 -1.3328568 -0.10185544
000120 b0 0b 04 c0 14 05 ce 3e a0 b9 75 be 8f 6d 87 bf
       -2.0632133 0.4023825 -0.23996592 -1.058031
000130 82 38 86 3e 24 8a 08 3d 1e 2f eb 3e bc 1f 0c bd
       0.26214987 0.033334866 0.45934385 -0.03420995
000140 0c 2a dc 3e d7 21 80 3f bf f4 02 3f 79 ec 13 c0
       0.4300083 1.0010327 0.511547 -2.3113081
000150 2c aa 2a c0 6a e3 16 bd f3 2c f9 be 42 71 0b be
       -2.6666365 -0.036837973 -0.48667106 -0.13617423
000160 ed 06 52 bf 0c 2a 1f c0 f3 9e 26 c0 8a e2 80 3f
       -0.8204182 -2.4869413 -2.6034515 1.0069134
000170 51 cc 57 bd f2 2a 54 3f fc 25 02 bf 8a e6 d6 bd
       -0.052685086 0.8287803 -0.5083921 -0.104931906
000180 e4 da b6 bf 6a ec 0a c0 03 f3 3c be c4 47 e1 3c
       -1.428555 -2.1706796 -0.18452077 0.02750004
000190 1a d2 21 3f 0f d6 e0 be 0c bc 2a bd 54 26 86 3e
       0.63211215 -0.43913314 -0.04168324 0.26201117
0001a0 d7 30 37 3e 17 90 48 3f a4 0e 82 bf 09 32 29 3f
       0.17889725 0.78344864 -1.0160718 0.6609197
0001b0 c2 79 06 c0 3b bf 53 3f a2 88 58 3c b5 fb a6 be
       -2.1011815 0.8271367 0.01321617 -0.32613912
0001c0 15 c3 15 be 9f 1c bd bf 88 1d 18 3f 0c 98 f3 bf
       -0.14625199 -1.477436 0.5942006 -1.9030776
0001d0 7c 7b 10 3f c9 5f d5 bf e8 08 f0 bf 18 73 5f 3c
       0.5643842 -1.6669856 -1.8752718 0.01363828
0001e0 2f b7 72 bf fa 3e f2 3e b6 73 31 bf 4e b7 be bd
       -0.94810766 0.47313672 -0.69317186 -0.09312306
0001f0 bb 8c 69 be 40 01 2f 3f de 58 32 bf de 80 2d be
       -0.2280759 0.6836128 -0.6966685 -0.1694369

l3.bias f4 [16]
000000 c6 fc 49 3e 0b 5c 11 3e 09 31 b2 3e 9e a4 fb 3d
       0.19725332 0.14195268 0.34803036 0.122872576
000010 2a fc 3d bd fe a7 e3 be f5 fb e7 3c 2c e2 e1 be
       -0.04638306 -0.44464105 0.028318385 -0.44117868
000020 42 f6 06 3e b8 1f 31 bf d5 0e 3e be ce 71 17 3f
       0.13179877 -0.69189024 -0.18560345 0.5915803
000030 69 e3 07 3e 85 b2 90 be 5d 82 70 3e 34 0d 48 bf
       0.13270344 -0.282612 0.2348723 -0.78145146
